data.pth (torch, 6807 bytes, 6 tensors)

l1.weight f4 [8, 85]
000000 87 56 d8 3e 05 e2 f9 3e 66 0c ce bd bd 6c b9 bc
       0.42253515 0.48805252 -0.100609586 -0.022634858
000010 ad b3 78 3e cc 0b 9f 3e f5 10 a9 be 5a 2a 31 3f
       0.24287291 0.31063688 -0.3302075 0.6920525
000020 1f 00 81 be 10 f9 19 bf f4 f3 5a 3e ef a1 32 3e
       -0.25195405 -0.60145664 0.21382123 0.17444585
000030 cd fc b4 bc aa 98 54 3d 09 70 19 3e e7 e3 30 3d
       -0.022093201 0.051903404 0.14984144 0.043186095
000040 d0 bb b9 3e a8 26 f8 3e 41 dc a2 bd 57 30 15 bb
       0.36276102 0.48466992 -0.07952166 -0.0022764408
000050 1f 91 3d 3f 83 a4 f6 3d 18 0a b2 be 8b b5 99 b9
       0.7404956 0.12043097 -0.34773326 -0.00029317694
000060 79 61 f7 be 6d 6c 07 bf 98 82 42 be 1e 3b a3 3d
       -0.48316553 -0.5289982 -0.1899513 0.0797026
000070 b0 15 a9 bd 67 86 f3 3e 7d 56 5e bd 20 96 69 3f
       -0.0825609 0.47563478 -0.0542817 0.912447
000080 c3 d8 b2 bd 82 2e 15 3d b0 0c e9 3e 31 d5 32 3f
       -0.0873275 0.036421306 0.45517492 0.69856554
000090 c4 42 97 3e 7e 06 1b bf ea f4 c9 bd 90 47 81 3e
       0.29543126 -0.6055678 -0.09861167 0.2524991
0000a0 1c 34 7e 3e 84 0d a6 bd f4 bc 97 3e a6 33 b8 3e
       0.24824566 -0.08108047 0.29636347 0.35976905
0000b0 87 65 9b 3e 86 de ab 3e ae 53 c3 3e 3b bd bc 3e
       0.30350897 0.3356821 0.3814978 0.3686312
0000c0 1f d9 85 3e 04 b0 83 3e f0 6e de 3e 16 06 09 3e
       0.26142213 0.25720227 0.43444014 0.13381228
0000d0 aa 31 92 3e 79 47 f3 be e4 c4 22 be 32 a5 29 be
       0.28553516 -0.47515467 -0.1589542 -0.16566923
0000e0 31 62 f7 bd 24 1b 4f 3f 0d 93 81 be 2f 01 58 3e
       -0.120792754 0.8090079 -0.25307503 0.21094202
0000f0 19 5d ba bd dc 8f c0 3e 99 01 90 be e8 5b 23 3f
       -0.09099788 0.37609756 -0.2812622 0.6381211
000100 31 5c e9 bd de 44 43 3f 93 cd 7c be 3b e0 30 3f
       -0.11394537 0.7627696 -0.24687795 0.6909215
000110 b2 ea cd be f5 66 1b bf f3 ac 1f be f9 45 09 bf
       -0.4021812 -0.60703975 -0.15593319 -0.53622395
000120 fc fc 57 be de 09 e9 bd 7e ba 46 be 88 d0 33 be
       -0.210926 -0.11378835 -0.19407079 -0.17560017
000130 d2 79 f6 3d 70 01 c6 3e 02 e5 a4 3d 62 62 e3 be
       0.12034954 0.38672972 0.08051492 -0.44410998
000140 80 77 d0 3e 34 7f c9 bd 38 87 ee 3e 25 ca bd 3e
       0.4071617 -0.09838715 0.4658754 0.37068287
000150 18 6b 57 3e 96 df cb 3e 73 56 e4 3e 88 9c a9 bc
       0.21036947 0.3981902 0.44597206 -0.020704523
000160 c0 f7 2e be 7a 14 a8 3e 05 9a e1 be 59 84 22 be
       -0.17086697 0.32828122 -0.4406282 -0.15870799
000170 86 60 f4 be 4f fa a7 be 93 cd 89 be dd fd 13 bd
       -0.47729892 -0.32808158 -0.26914653 -0.036130775
000180 db 5e ed be 02 96 c8 be b9 b7 92 3b 9c 00 37 bd
       -0.4636143 -0.39176947 0.004477468 -0.044678316
000190 4d a9 f8 bd 3f 3c 81 be 03 09 9b be 03 5f 96 be
       -0.121416666 -0.25241277 -0.30280313 -0.29369363
0001a0 7a 57 87 bd 31 ef d6 be 15 49 5c be 0f fe f4 3e
       -0.06608482 -0.41979364 -0.21512254 0.4785008
0001b0 ae 29 ed be ba bb a7 bd 14 2d 3d be ff 5a fb be
       -0.46320862 -0.08190103 -0.18474227 -0.49092862
0001c0 8f f2 a4 bd dc 8c c4 be b2 8b 7d be 22 fb 91 bd
       -0.08054077 -0.38388717 -0.24760321 -0.07127978
0001d0 9f 05 b5 3e fd 8b 6d be 9d bf f8 bc 9d 3e a7 be
       0.3535585 -0.23197933 -0.030364806 -0.32664958
0001e0 32 0f ec be 50 4b df be 0d 91 8c be df dd cf bc
       -0.46105343 -0.43612146 -0.27454415 -0.025374351
0001f0 b6 dc b7 be 87 77 47 be 58 31 a5 be 03 8d 11 3f
       -0.35910577 -0.1947919 -0.3226421 0.5685579
000200 ed 3e b5 be 9e a2 90 be 5d f3 18 3f 4f ec 11 3f
       -0.3539957 -0.28249067 0.5974634 0.57001203
000210 d9 27 05 3f 1c 8a f1 3e e7 88 c0 be e9 4c 12 3f
       0.5201393 0.47175682 -0.37604448 0.57148606
000220 d1 d2 a4 bd 11 34 2d be 63 92 33 be 4a 14 0b 3f
       -0.080480225 -0.16914393 -0.17536311 0.54327834
000230 96 3c 63 bd 28 02 b9 3d e5 02 b9 bd 6b 80 58 be
       -0.0554777 0.090336144 -0.09033755 -0.21142738
000240 fd 5a 58 be 38 d6 58 3f e6 15 79 be 58 5d 39 be
       -0.2112846 0.8470187 -0.2432476 -0.18102014
000250 82 9c e3 be 96 ab aa bd 43 fb 65 bd b6 5e 85 be
       -0.44455343 -0.08333509 -0.056147825 -0.2604882
000260 5b 3d 03 bf 3f 16 29 3f e3 cc 5b 3e 98 c3 ad be
       -0.51265496 0.6604957 0.21464877 -0.3393829
000270 c9 71 3a 3f 7c c5 82 be c2 9b 88 be 54 74 82 be
       0.7282987 -0.25541294 -0.26681334 -0.25479376
000280 60 6b 52 3f 4d 05 75 be 63 7d 59 be ef a3 56 be
       0.8219509 -0.23927803 -0.21239237 -0.20960973
000290 27 e7 45 3f 12 e0 eb be 57 1e 1a 3f 5c 0c d4 be
       0.77305835 -0.4606939 0.60202545 -0.4141568
0002a0 77 b6 2c be e9 4c 1a 3f 1d a1 f3 3e 4a 2b f9 3e
       -0.1686648 0.60273606 0.47583857 0.4866584
0002b0 c3 52 92 3e 33 e4 ff 3c 50 d5 8b 3e 82 7c 64 3e
       0.28578767 0.031236744 0.27311182 0.22313121
0002c0 ca ed cd 3e e3 0b 0b 3f 1f 9f 7e 3e 08 ec 17 be
       0.4022048 0.5431501 0.24865387 -0.14836133
0002d0 6a 08 05 bf 16 45 04 be 41 71 9b 3e 7a c9 16 3e
       -0.51965964 -0.12916979 0.30359843 0.14725295
0002e0 a3 63 6e 3e cf ee c3 bc a1 e2 00 bf 37 c6 f3 3e
       0.23280196 -0.023917584 -0.5034581 0.47612163
0002f0 37 ed 00 3e 0d fa 09 3d 3a c6 44 3d 1e ce 6c bd
       0.1259049 0.033685733 0.048040606 -0.057813756
000300 8b 8e 13 3f 65 00 55 3e f0 82 80 3e 32 a6 d7 be
       0.5763938 0.20800932 0.25099897 -0.42118984
000310 58 f1 b2 3e b9 d1 12 3f 2e 2d 13 3f 84 3c a7 3e
       0.34949756 0.5735126 0.57490814 0.32663357
000320 60 51 9c 3e 6e d5 14 be 58 61 e6 3d cd 8e 69 3e
       0.30530834 -0.14534542 0.112490356 0.2280838
000330 1d 1f ea 3e db da 2a 3f 3d e7 78 3e 73 d0 9d be
       0.45726863 0.66740197 0.2430696 -0.30823097
000340 e3 7b 20 3c 96 c2 89 be bf fe 1a 3d d3 0d c4 3e
       0.009795162 -0.2690627 0.0378406 0.38291797
000350 61 fa 8e be e0 6f 6c 3d d4 a3 67 3d ad c5 95 be
       -0.279254 0.05772388 0.056552723 -0.29252377
000360 d0 a8 57 be 9a a8 11 be b1 32 9d be 56 29 b6 3a
       -0.2106049 -0.14224473 -0.30702737 0.0013897817
000370 3d 16 6b be a8 41 12 3d 78 ed f7 be 7c af 87 3e
       -0.22957702 0.035707146 -0.48423362 0.2650107
000380 f6 42 0e bc b7 be 2f 3f a2 8f 8c 3e ea e0 04 be
       -0.008682957 0.6865038 0.27453333 -0.12976423
000390 ff 67 b4 be d7 39 f8 be 16 f8 32 bf 40 bb b2 be
       -0.35235593 -0.48481628 -0.699098 -0.34908485
0003a0 1e ac ce 3e 05 06 b8 3d 3f 84 d0 3e 3c 31 24 be
       0.4036569 0.08985523 0.40725896 -0.16034406
0003b0 1e ec df 3e e4 93 58 bd 8d e1 b1 3e ab 6f 2e 3f
       0.4373483 -0.052875414 0.34742394 0.6813914
0003c0 1a c1 bb 3e 7e ae c5 3e 2a b7 05 3f 81 51 00 3f
       0.36670762 0.3860969 0.5223261 0.50124365
0003d0 e5 5f 20 3f 99 de 35 bf ad 49 1d 3e 47 7d e3 be
       0.62646323 -0.7104278 0.15360136 -0.44431517
0003e0 0b d8 af 3d b5 1e fa 3e 8f d0 a6 be 60 5f 40 be
       0.08586129 0.48851553 -0.32580993 -0.18786383
0003f0 ec f4 a9 be 3e 21 9c be 38 3c e5 3e 9f c4 9a 3e
       -0.33194673 -0.30494112 0.44772506 0.30228135

l1.bias f4 [8]
000000 ee c1 bb 3e 3c c8 fd 3e e8 14 dd 3e 01 41 a3 3e
       0.36671394 0.4956683 0.43180013 0.31885532
000010 97 dc 51 3f 21 ca 22 3d 13 ca 1c 3f 17 9a 4a 3f
       0.8197722 0.039743546 0.6124584 0.7914137

l2.weight f4 [8, 8]
000000 4b e4 c2 3e f3 9c 93 3f d1 03 c1 3e 2b 89 26 bf
       0.380648 1.1532272 0.37698224 -0.6505305
000010 39 76 fe 3e b1 27 8d bf a1 84 a6 3f 29 a1 b0 3e
       0.49699572 -1.1027738 1.3009225 0.34497955
000020 b5 67 62 bf 13 91 0a bf 73 01 ca 3c a9 e5 4e be
       -0.88439494 -0.54127616 0.024658894 -0.20204796
000030 7c ee 06 3f 0f 76 94 3e ca 7d ec 3e 6e 64 77 3f
       0.5270765 0.28996322 0.4618972 0.9663762
000040 91 ba 06 3e fd 9c 81 bf c0 1a 47 3e 3f af 04 bf
       0.13157107 -1.0126034 0.19443798 -0.51829904
000050 58 34 39 3f 54 be cc be 3a 09 e5 bc 4b b8 7d 3f
       0.72345495 -0.3998896 -0.027958501 0.99109334
000060 11 3c 25 bf 7d d8 1f bf ce c7 47 3f 86 bc 9a 3f
       -0.6454478 -0.6243971 0.7803925 1.2088783
000070 5d 95 cd 3e 8e 05 6d be 5b 17 60 be f1 2b 32 3f
       0.40153018 -0.2314665 -0.2188391 0.695983
000080 0c 9a 90 3f 8b 70 c4 be 02 f0 d0 3e 80 e0 3e be
       1.1297011 -0.38367113 0.4080811 -0.18640327
000090 47 9e 81 bf 98 f8 92 3e 48 76 3d be 2e 85 7a 3f
       -1.0126427 0.28705287 -0.18502152 0.97859466
0000a0 43 f7 45 3f b2 66 36 bf f0 85 95 bd 84 2f c8 be
       0.77330416 -0.7125045 -0.07300937 -0.39098752
0000b0 f6 95 18 3f 38 94 a1 3f 6b d2 67 3f c5 19 2c be
       0.5960382 1.2623358 0.9055545 -0.16806705
0000c0 36 dc 16 3f b8 d5 e0 3d aa c2 1a bf 47 96 1f 3f
       0.58929765 0.109782636 -0.60453284 0.6233868
0000d0 7e c7 98 3f f2 7b 83 3f 9d a6 8e bf 76 c6 45 3f
       1.193588 1.02722 -1.1144596 0.7725595
0000e0 b1 c0 b4 be 40 a1 d2 be 39 b5 89 3f 21 96 e8 3c
       -0.35303262 -0.4113865 1.075843 0.0283919
0000f0 3f 9e 93 bf 79 5b f0 be c5 87 1b 3f e3 26 e7 3e
       -1.1532668 -0.46944788 0.6075404 0.45146856

l2.bias f4 [8]
000000 09 77 fc 3e c5 17 c5 bd 42 7f df 3d 79 1f 48 3f
       0.49309567 -0.09623674 0.109129444 0.78173023
000010 15 8b 2f 3e d1 2a e1 3e 1c 06 f7 3e ac 7b 97 3d
       0.171429 0.4397798 0.4824685 0.073966354

l3.weight f4 [16, 8]
000000 c8 7a 7c 3e 2f 6d 29 be 0a c8 a3 3e 6f 5b b9 3e
       0.24656212 -0.16545556 0.31988555 0.3620257
000010 07 9e ff be 10 9c 37 be b5 04 4a be 3f 93 8a bf
       -0.49925253 -0.17930627 -0.19728358 -1.0826186
000020 3b 3c 15 3e a0 68 59 3d c5 67 e1 bf 02 95 e2 3e
       0.14573757 0.053078294 -1.7609793 0.4425431
000030 7f d6 22 3c e0 3f ad be 86 99 bf bf a1 c8 57 3e
       0.009938835 -0.33837795 -1.4968727 0.21072628
000040 cf c8 0b 3f 52 7a 9f bf ae f9 8c bf 50 fd 30 bf
       0.54603285 -1.2459204 -1.1013696 -0.69136524
000050 ae e3 d1 be 18 c3 96 bf 39 c8 79 bf eb e9 13 3f
       -0.40994018 -1.1778288 -0.9757114 0.57778805
000060 0d 52 b5 bf 5d d2 c2 bf 89 fd 5a bf ec e9 12 be
       -1.4165665 -1.5220448 -0.85543114 -0.14347047
000070 db b0 4b 3f 21 6f cb 3e 0d c8 1e 3e c6 e2 88 bf
       0.79566735 0.39733222 0.15506001 -1.0694206
000080 7e 7e d0 bf b9 a9 cc be ce 4a 03 bf 2d ad 67 bf
       -1.6288602 -0.39973238 -0.5128602 -0.9049862
000090 65 ce 14 bf 56 d8 55 3f de cc a9 3e 09 07 23 bf
       -0.58127433 0.8353323 0.33164114 -0.6368261
0000a0 18 70 81 bf da 01 26 bf ca b0 d0 3e e2 cc 5a 3e
       -1.0112333 -0.64846575 0.4075988 0.21367219
0000b0 bb f8 1f 3f 20 5b 93 bf 53 32 53 3d 2e f1 82 bc
       0.6248891 -1.1512184 0.051561665 -0.015984144
0000c0 78 66 03 be b6 28 c5 be bb aa d4 3e f9 ad 35 bf
       -0.12832057 -0.38507622 0.41536507 -0.70968586
0000d0 f2 87 b2 3e 99 70 e0 3d 30 f9 8a bf bf de 80 3e
       0.34869343 0.10958976 -1.0857296 0.25169942
0000e0 f4 08 97 bf b4 f3 67 3e 7d de cd 3e d9 06 3b bf
       -1.1799607 0.22651559 0.40208808 -0.73057324
0000f0 d7 08 97 3e ee ba 40 3d c2 90 60 3e 05 96 6f be
       0.29498932 0.04705327 0.2193022 -0.23397072
000100 03 44 c9 bf 07 70 31 bf 7f 2a 2c bf 11 eb 0c 3f
       -1.572388 -0.69311565 -0.67252344 0.5504618
000110 2b 5b 4e bf e8 f5 2f 3e a4 72 68 3e 49 92 12 bf
       -0.8060786 0.1718365 0.22699982 -0.57254463
000120 25 5f f5 be e4 ff 32 3f f3 96 b4 3e 78 15 0e 3e
       -0.47924152 0.6992171 0.35271415 0.13875377
000130 28 4d 98 be 04 e5 7a bf d0 ed 8e bf d3 e2 aa 3e
       -0.29746366 -0.980057 -1.1166325 0.33376178
000140 4e 30 ab bf aa 04 2e bf c7 da 7d bf 05 60 68 3f
       -1.3374116 -0.67975867 -0.9916195 0.90771514
000150 20 c9 26 be 3b 4d 11 bf 08 3b 37 bf 92 4b 0f 3f
       -0.1628766 -0.5675847 -0.7157445 0.55974686
000160 1d 8a b8 be e0 7f f5 bf 6c 8b c3 bf 7f 0d 12 bf
       -0.36042872 -1.9179649 -1.5276923 -0.57051843
000170 86 21 6a bf 6d 88 a2 3b 63 84 40 3f 83 03 bd be
       -0.914574 0.004960111 0.75202006 -0.36916742
000180 83 fe f5 3d 92 7e a8 bf 4c 6e 94 bf aa 43 84 bf
       0.12011435 -1.3163626 -1.159616 -1.033315
000190 82 a2 14 3e dc 78 a8 bf 71 1f d9 3e 72 35 67 bf
       0.14515117 -1.3161883 0.424068 -0.90315926
0001a0 bf 9f 79 bd d2 5e a5 bf f2 ab ab bf b4 1a 8b bf
       -0.06094336 -1.2919562 -1.3411849 -1.0867524
0001b0 33 b4 9c 3e 23 62 26 3f 5b d3 c5 be d0 51 7e bf
       0.3060623 0.64993495 -0.38637814 -0.99343586
0001c0 08 c4 db bf 39 4a 5b 3f e3 96 fd 3e 75 59 9e 3e
       -1.7169199 0.8566013 0.4952918 0.30927625
0001d0 e3 db 17 bf 76 79 55 bf 19 ff b2 3e 93 a4 3e bf
       -0.59319896 -0.8338846 0.3496025 -0.7446987
0001e0 7c ac 33 3f d3 31 d4 bf cd 14 5d bf 6a 73 63 bf
       0.70185065 -1.6577705 -0.86359864 -0.8884798
0001f0 be e9 c0 be e1 a5 03 3e d7 09 ba bf 06 eb ac bf
       -0.3767833 0.12856247 -1.4534253 -1.3509223

l3.bias f4 [16]
000000 c5 c9 8b 3d 88 3b fe bd b6 0e 11 3e c8 c2 0e be
       0.06825594 -0.124136984 0.14165768 -0.1394149
000010 fa a2 40 3d 32 3e a5 be eb 0c a1 be c9 4e 10 bf
       0.047030427 -0.32274014 -0.31455168 -0.56370217
000020 81 09 94 3c cc 1c fb be 11 0e c0 3e ee 90 c4 3e
       0.018070938 -0.49045408 0.37510732 0.38391823
000030 e2 df 92 3e b8 bf f9 bc 5e 9b 5a 3e 68 b2 88 3e
       0.28686434 -0.030486926 0.2134833 0.26698613
